…
642/642 - 20s - loss: 0.0083 - accuracy: 0.9974 - val_loss: 0.0474 - val_accuracy: 0.9840 - lr: 1.2500e-05 - 20s/epoch - 31ms/step
Epoch 15/50
642/642 - 20s - loss: 0.0085 - accuracy: 0.9975 - val_loss: 0.0475 - val_accuracy: 0.9840 - lr: 6.2500e-06 - 20s/epoch - 31ms/step
Epoch 16/50
642/642 - 20s - loss: 0.0081 - accuracy: 0.9981 - val_loss: 0.0476 - val_accuracy: 0.9840 - lr: 6.2500e-06 - 20s/epoch - 31ms/step
Epochs = 16

Model: "sequential"
_________________________________________________________________
 Layer (type)                Output Shape              Param #
=================================================================
 dense (Dense)               (None, 128)               5491072

 dropout (Dropout)           (None, 128)               0

 dense_1 (Dense)             (None, 32)                4128

 dropout_1 (Dropout)         (None, 32)                0

 dense_2 (Dense)             (None, 1)                 33

=================================================================
Total params: 5,495,233
Trainable params: 5,495,233
Non-trainable params: 0
_________________________________________________________________
