…
642/642 - 23s - loss: 0.0114 - accuracy: 0.9970 - val_loss: 0.0528 - val_accuracy: 0.9819 - lr: 1.2500e-05 - 23s/epoch - 36ms/step
Epoch 15/50
642/642 - 23s - loss: 0.0114 - accuracy: 0.9969 - val_loss: 0.0529 - val_accuracy: 0.9817 - lr: 6.2500e-06 - 23s/epoch - 36ms/step
Epoch 16/50
642/642 - 23s - loss: 0.0110 - accuracy: 0.9970 - val_loss: 0.0530 - val_accuracy: 0.9816 - lr: 6.2500e-06 - 23s/epoch - 36ms/step
Epochs = 16

Model: "sequential"
_________________________________________________________________
 Layer (type)                Output Shape              Param #
=================================================================
 dense (Dense)               (None, 128)               6400128

 dropout (Dropout)           (None, 128)               0

 dense_1 (Dense)             (None, 32)                4128

 dropout_1 (Dropout)         (None, 32)                0

 dense_2 (Dense)             (None, 1)                 33

=================================================================
Total params: 6,404,289
Trainable params: 6,404,289
Non-trainable params: 0
_________________________________________________________________
