…
642/642 - 23s - loss: 0.0098 - accuracy: 0.9973 - val_loss: 0.0627 - val_accuracy: 0.9843 - lr: 1.2500e-05 - 23s/epoch - 36ms/step
Epoch 12/50
642/642 - 23s - loss: 0.0096 - accuracy: 0.9974 - val_loss: 0.0630 - val_accuracy: 0.9843 - lr: 6.2500e-06 - 23s/epoch - 36ms/step
Epoch 13/50
642/642 - 23s - loss: 0.0092 - accuracy: 0.9976 - val_loss: 0.0635 - val_accuracy: 0.9845 - lr: 6.2500e-06 - 23s/epoch - 36ms/step
Epochs = 13

Model: "sequential"
_________________________________________________________________
 Layer (type)                Output Shape              Param #
=================================================================
 dense (Dense)               (None, 128)               5485184

 dropout (Dropout)           (None, 128)               0

 dense_1 (Dense)             (None, 32)                4128

 dropout_1 (Dropout)         (None, 32)                0

 dense_2 (Dense)             (None, 1)                 33

=================================================================
Total params: 5,489,345
Trainable params: 5,489,345
Non-trainable params: 0
_________________________________________________________________
